…
learning_anneal = 1.1 # Annealing applied to learning rate every epoch
lr              = 0.0003 # Initial learning rate
momentum        = 0.9 # Momentum
max_norm        = 200 # Norm cutoff to prevent explosion of gradients
l2              = 0 # L2 regularization
batch_size      = 20 # Batch size for training
augment         = True # Use random tempo and gain perturbations
exit_at_acc     = True # Exit at given target accuracy
num_workers     = 4 # Number of workers used in data-loading
cuda            = True # Use cuda to train model

Number of parameters: 23610500
Wav2Letter(
  (conv): MaskConv(
    (seq_module): Sequential(
      (0): Conv2d(1, 250, kernel_size=(39, 48), stride=(1, 2), padding=(0, 24))
      (1): BatchNorm2d(250, eps=1e-05, momentum=0.1, affine=True, track_running_stats=True)
      (2): ReLU(inplace)
      (3): Conv2d(250, 250, kernel_size=(1, 7), stride=(1, 1), padding=(0, 3))
      (4): BatchNorm2d(250, eps=1e-05, momentum=0.1, affine=True, track_running_stats=True)
      (5): ReLU(inplace)
      (6): Conv2d(250, 250, kernel_size=(1, 7), stride=(1, 1), padding=(0, 3))
      (7): BatchNorm2d(250, eps=1e-05, momentum=0.1, affine=True, track_running_stats=True)
      (8): ReLU(inplace)
      (9): Conv2d(250, 250, kernel_size=(1, 7), stride=(1, 1), padding=(0, 3))
      (10): BatchNorm2d(250, eps=1e-05, momentum=0.1, affine=True, track_running_stats=True)
      (11): ReLU(inplace)
      (12): Conv2d(250, 250, kernel_size=(1, 7), stride=(1, 1), padding=(0, 3))
      (13): BatchNorm2d(250, eps=1e-05, momentum=0.1, affine=True, track_running_stats=True)
      (14): ReLU(inplace)
      (15): Conv2d(250, 250, kernel_size=(1, 7), stride=(1, 1), padding=(0, 3))
      (16): BatchNorm2d(250, eps=1e-05, momentum=0.1, affine=True, track_running_stats=True)
      (17): ReLU(inplace)
      (18): Conv2d(250, 250, kernel_size=(1, 7), stride=(1, 1), padding=(0, 3))
      (19): BatchNorm2d(250, eps=1e-05, momentum=0.1, affine=True, track_running_stats=True)
      (20): ReLU(inplace)
      (21): Conv2d(250, 250, kernel_size=(1, 7), stride=(1, 1), padding=(0, 3))
      (22): BatchNorm2d(250, eps=1e-05, momentum=0.1, affine=True, track_running_stats=True)
      (23): ReLU(inplace)
      (24): Conv2d(250, 2000, kernel_size=(1, 32), stride=(1, 1), padding=(0, 15))
      (25): BatchNorm2d(2000, eps=1e-05, momentum=0.1, affine=True, track_running_stats=True)
      (26): ReLU(inplace)
    )
  )
  (fc): Sequential(
    (0): SequenceWise (
    Sequential(
      (0): BatchNorm1d(2000, eps=1e-05, momentum=0.1, affine=True, track_running_stats=True)
      (1): Linear(in_features=2000, out_features=2000, bias=True)
      (2): BatchNorm1d(2000, eps=1e-05, momentum=0.1, affine=True, track_running_stats=True)
      (3): Linear(in_features=2000, out_features=29, bias=False)
    ))
  )
  (inference_softmax): InferenceBatchSoftmax()
)
Shuffling batches for the following epochs
Epoch: [1][1/5201]	Time 5.990 (5.990)	Data 5.424 (5.424)	Loss 1544.8466 (1544.8466)	
Epoch: [1][2/5201]	Time 0.620 (3.305)	Data 0.007 (2.715)	Loss 1679.0104 (1611.9285)	
Epoch: [1][3/5201]	Time 0.227 (2.279)	Data 0.008 (1.813)	Loss 313.2592 (1179.0387)	
…
